Model: "sequential"
_________________________________________________________________
Layer (type)                 Output Shape              Param #   
=================================================================
rescaling (Rescaling)        (None, 180, 180, 3)       0         
_________________________________________________________________
conv2d (Conv2D)              (None, 180, 180, 16)      448       
_________________________________________________________________
max_pooling2d (MaxPooling2D) (None, 90, 90, 16)        0         
_________________________________________________________________
conv2d_1 (Conv2D)            (None, 90, 90, 32)        4640      
_________________________________________________________________
max_pooling2d_1 (MaxPooling2 (None, 45, 45, 32)        0         
_________________________________________________________________
conv2d_2 (Conv2D)            (None, 45, 45, 64)        18496     
_________________________________________________________________
max_pooling2d_2 (MaxPooling2 (None, 22, 22, 64)        0         
_________________________________________________________________
flatten (Flatten)            (None, 30976)             0         
_________________________________________________________________
dense (Dense)                (None, 5)                 154885    
=================================================================
Total params: 178,469
Trainable params: 178,469
Non-trainable params: 0
_________________________________________________________________
['__call__', '__class__', '__delattr__', '__dir__', '__eq__', '__format__', '__ge__', '__getattribute__', '__getstate__', '__gt__', '__hash__', '__init__', '__init_subclass__', '__le__', '__l
…
